…
8    0.7996    0.5927   0.02218   0.02113         0\n    71/299     3.84G   0.02334   0.01624         0   0.03959        13       640    0.5977    0.8679    0.7835    0.5902   0.02169   0.02163         0\n    72/299     3.84G   0.02318   0.01622         0    0.0394        29       640    0.5606     0.876    0.7782    0.5851   0.02201   0.02225         0\n    73/299     3.84G   0.02314   0.01659         0   0.03973        14       640    0.5817    0.8801     0.822    0.6163   0.02117   0.02019         0\n', 'model': Model(
  (model): Sequential(
    (0): Focus(
      (conv): Conv(
        (conv): Conv2d(12, 32, kernel_size=(3, 3), stride=(1, 1), padding=(1, 1), bias=False)
        (bn): BatchNorm2d(32, eps=0.001, momentum=0.03, affine=True, track_running_stats=True)
        (act): Hardswish()
      )
    )
    (1): Conv(
      (conv): Conv2d(32, 64, kernel_size=(3, 3), stride=(2, 2), padding=(1, 1), bias=False)
      (bn): BatchNorm2d(64, eps=0.001, momentum=0.03, affine=True, track_running_stats=True)
      (act): Hardswish()
    )
    (2): BottleneckCSP(
      (cv1): Conv(
        (conv): Conv2d(64, 32, kernel_size=(1, 1), stride=(1, 1), bias=False)
        (bn): BatchNorm2d(32, eps=0.001, momentum=0.03, affine=True, track_running_stats=True)
        (act): Hardswish()
      )
      (cv2): Conv2d(64, 32, kernel_size=(1, 1), stride=(1, 1), bias=False)
      (cv3): Conv2d(32, 32, kernel_size=(1, 1), stride=(1, 1), bias=False)
      (cv4): Conv(
        (conv): Conv2d(64, 64, kernel_size=(1, 1), stride=(1, 1), bias=False)
        (bn): BatchNorm2d(64, eps=0.001, momentum=0.03, affine=True, track_running_stats=True)
        (act): Hardswish()
      )
      (bn): BatchNorm2d(64, eps=0.001, momentum=0.03, affine=True, track_running_stats=True)
      (act): LeakyReLU(negative_slope=0.1, inplace=True)
      (m): Sequential(
        (0): Bottleneck(
          (cv1): Conv(
            (conv): Conv2d(32, 32, kernel_size=(1, 1), stride=(1, 1), bias=False)
            (bn): BatchNorm2d(32, eps=0.001, momentum=0.03, affine=True, track_running_stats=True)
            (act): Hardswish()
          )
          (cv2): Conv(
            (conv): Conv2d(32, 32, kernel_size=(3, 3), stride=(1, 1), padding=(1, 1), bias=False)
            (bn): BatchNorm2d(32, eps=0.001, momentum=0.03, affine=True, track_running_stats=True)
            (act): Hardswish()
          )
        )
      )
    )
    (3): Conv(
      (conv): Conv2d(64, 128, kernel_size=(3, 3), stride=(2, 2), padding=(1, 1), bias=False)
      (bn): BatchNorm2d(128, eps=0.001, momentum=0.03, affine=True, track_running_stats=True)
      (act): Hardswish()
    )
    (4): BottleneckCSP(
      (cv1): Conv(
        (conv): Conv2d(128, 64, kernel_size=(1, 1), stride=(1, 1), bias=False)
        (bn): BatchNorm2d(64, eps=0.001, momentum=0.03, affine=True, track_running_stats=True)
        (act): Hardswish()
      )
      (cv2): Conv2d(128, 64, kernel_size=(1, 1), stride=(1, 1), bias=False)
      (cv3): Conv2d(64, 64, kernel_size=(1, 1), stride=(1, 1), bias=False)
      (cv4): Conv(
        (conv): Conv2d(128, 128, kernel_size=(1, 1), stride=(1, 1), bias=False)
        (bn): BatchNorm2d(128, eps=0.001, momentum=0.03, affine=True, track_running_stats=True)
        (act): Hardswish()
      )
      (bn): BatchNorm2d(128, eps=0.001, momentum=0.03, affine=True, track_running_stats=True)
      (act): LeakyReLU(negative_slope=0.1, inplace=True)
      (m): Sequential(
        (0): Bottleneck(
          (cv1): Conv(
            (conv): Conv2d(64, 64, kernel_size=(1, 1), stride=(1, 1), bias=False)
            (bn): BatchNorm2d(64, eps=0.001, momentum=0.03, affine=True, track_running_stats=True)
            (act): Hardswish()
          )
          (cv2): Conv(
            (conv): Conv2d(64, 64, kernel_size=(3, 3), stride=(1, 1), padding=(1, 1), bias=False)
            (bn): BatchNorm2d(64, eps=0.001, momentum=0.03, affine=True, track_running_stats=True)
            (act): Hardswish()
          )
        )
        (1): Bottleneck(
          (cv1): Conv(
            (conv): Conv2d(64, 64, kernel_size=(1, 1), stride=(1, 1), bias=False)
            (bn): BatchNorm2d(64, eps=0.001, momentum=0.03, affine=True, track_running_stats=True)
            (act): Hardswish()
          )
          (cv2): Conv(
            (conv): Conv2d(64, 64, kernel_size=(3, 3), stride=(1, 1), padding=(1, 1), bias=False)
            (bn): BatchNorm2d(64, eps=0.001, momentum=0.03, affine=True, track_running_stats=True)
            (act): Hardswish()
          )
        )
        (2): Bottleneck(
          (cv1): Conv(
            (conv): Conv2d(64, 64, kernel_size=(1, 1), stride=(1, 1), bias=False)
            (bn): BatchNorm2d(64, eps=0.001, momentum=0.03, affine=True, track_running_stats=True)
            (act): Hardswish()
          )
          (cv2): Conv(
            (conv): Conv2d(64, 64, kernel_size=(3, 3), stride=(1, 1), padding=(1, 1), bias=False)
            (bn): BatchNorm2d(64, eps=0.001, momentum=0.03, affine=True, track_running_stats=True)
            (act): Hardswish()
          )
        )
      )
    )
    (5): Conv(
      (conv): Conv2d(128, 256, kernel_size=(3, 3), stride=(2, 2), padding=(1, 1), bias=False)
      (bn): BatchNorm2d(256, eps=0.001, momentum=0.03, affine=True, track_running_stats=True)
      (act): Hardswish()
    )
    (6): BottleneckCSP(
      (cv1): Conv(
        (conv): Conv2d(256, 128, kernel_size=(1, 1), stride=(1, 1), bias=False)
        (bn): BatchNorm2d(128, eps=0.001, momentum=0.03, affine=True, track_running_stats=True)
        (act): Hardswish()
      )
      (cv2): Conv2d(256, 128, kernel_size=(1, 1), stride=(1, 1), bias=False)
      (cv3): Conv2d(128, 128, kernel_size=(1, 1), stride=(1, 1), bias=False)
      (cv4): Conv(
        (conv): Conv2d(256, 256, kernel_size=(1, 1), stride=(1, 1), bias=False)
        (bn): BatchNorm2d(256, eps=0.001, momentum=0.03, affine=True, track_running_stats=True)
        (act): Hardswish()
      )
      (bn): BatchNorm2d(256, eps=0.001, momentum=0.03, affine=True, track_running_stats=True)
      (act): LeakyReLU(negative_slope=0.1, inplace=True)
      (m): Sequential(
        (0): Bottleneck(
          (cv1): Conv(
            (conv): Conv2d(128, 128, kernel_size=(1, 1), stride=(1, 1), bias=False)
            (bn): BatchNorm2d(128, eps=0.001, momentum=0.03, affine=True, track_running_stats=True)
            (act): Hardswish()
          )
          (cv2): Conv(
            (conv): Conv2d(128, 128, kernel_size=(3, 3), stride=(1, 1), padding=(1, 1), bias=False)
            (bn): BatchNorm2d(128, eps=0.001, momentum=0.03, affine=True, track_running_stats=True)
            (act): Hardswish()
          )
        )
        (1): Bottleneck(
          (cv1): Conv(
            (conv): Conv2d(128, 128, kernel_size=(1, 1), stride=(1, 1), bias=False)
            (bn): BatchNorm2d(128, eps=0.001, momentum=0.03, affine=True, track_running_stats=True)
            (act): Hardswish()
          )
          (cv2): Conv(
            (conv): Conv2d(128, 128, kernel_size=(3, 3), stride=(1, 1), padding=(1, 1), bias=False)
            (bn): BatchNorm2d(128, eps=0.001, momentum=0.03, affine=True, track_running_stats=True)
            (act): Hardswish()
          )
        )
        (2): Bottleneck(
          (cv1): Conv(
            (conv): Conv2d(128, 128, kernel_size=(1, 1), stride=(1, 1), bias=False)
            (bn): BatchNorm2d(128, eps=0.001, momentum=0.03, affine=True, track_running_stats=True)
            (act): Hardswish()
          )
          (cv2): Conv(
            (conv): Conv2d(128, 128, kernel_size=(3, 3), stride=(1, 1), padding=(1, 1), bias=False)
            (bn): BatchNorm2d(128, eps=0.001, momentum=0.03, affine=True, track_running_stats=True)
            (act): Hardswish()
          )
        )
      )
    )
    (7): Conv(
      (conv): Conv2d(256, 512, kernel_size=(3, 3), stride=(2, 2), padding=(1, 1), bias=False)
      (bn): BatchNorm2d(512, eps=0.001, momentum=0.03, affine=True, track_running_stats=True)
      (act): Hardswish()
    )
    (8): SPP(
      (cv1): Conv(
        (conv): Conv2d(512, 256, kernel_size=(1, 1), stride=(1, 1), bias=False)
        (bn): BatchNorm2d(256, eps=0.001, momentum=0.03, affine=True, track_running_stats=True)
        (act): Hardswish()
      )
      (cv2): Conv(
        (conv): Conv2d(1024, 512, kernel_size=(1, 1), stride=(1, 1), bias=False)
        (bn): BatchNorm2d(512, eps=0.001, momentum=0.03, affine=True, track_running_stats=True)
        (act): Hardswish()
      )
      (m): ModuleList(
        (0): MaxPool2d(kernel_size=5, stride=1, padding=2, dilation=1, ceil_mode=False)
        (1): MaxPool2d(kernel_size=9, stride=1, padding=4, dilation=1, ceil_mode=False)
        (2): MaxPool2d(kernel_size=13, stride=1, padding=6, dilation=1, ceil_mode=False)
      )
    )
    (9): BottleneckCSP(
      (cv1): Conv(
        (conv): Conv2d(512, 256, kernel_size=(1, 1), stride=(1, 1), bias=False)
        (bn): BatchNorm2d(256, eps=0.001, momentum=0.03, affine=True, track_running_stats=True)
        (act): Hardswish()
      )
      (cv2): Conv2d(512, 256, kernel_size=(1, 1), stride=(1, 1), bias=False)
      (cv3): Conv2d(256, 256, kernel_size=(1, 1), stride=(1, 1), bias=False)
      (cv4): Conv(
        (conv): Conv2d(512, 512, kernel_size=(1, 1), stride=(1, 1), bias=False)
        (bn): BatchNorm2d(512, eps=0.001, momentum=0.03, affine=True, track_running_stats=True)
        (act): Hardswish()
      )
      (bn): BatchNorm2d(512, eps=0.001, momentum=0.03, affine=True, track_running_stats=True)
      (act): LeakyReLU(negative_slope=0.1, inplace=True)
      (m): Sequential(
        (0): Bottleneck(
          (cv1): Conv(
            (conv): Conv2d(256, 256, kernel_size=(1, 1), stride=(1, 1), bias=False)
            (bn): BatchNorm2d(256, eps=0.001, momentum=0.03, affine=True, track_running_stats=True)
            (act): Hardswish()
          )
          (cv2): Conv(
            (conv): Conv2d(256, 256, kernel_size=(3, 3), stride=(1, 1), padding=(1, 1), bias=False)
            (bn): BatchNorm2d(256, eps=0.001, momentum=0.03, affine=True, track_running_stats=True)
            (act): Hardswish()
          )
        )
      )
    )
    (10): Conv(
      (conv): Conv2d(512, 256, kernel_size=(1, 1), stride=(1, 1), bias=False)
      (bn): BatchNorm2d(256, eps=0.001, momentum=0.03, affine=True, track_running_stats=True)
      (act): Hardswish()
    )
    (11): Upsample(scale_factor=2.0, mode=nearest)
    (12): Concat()
    (13): BottleneckCSP(
      (cv1): Conv(
        (conv): Conv2d(512, 128, kernel_size=(1, 1), stride=(1, 1), bias=False)
        (bn): BatchNorm2d(128, eps=0.001, momentum=0.03, affine=True, track_running_stats=True)
        (act): Hardswish()
      )
      (cv2): Conv2d(512, 128, kernel_size=(1, 1), stride=(1, 1), bias=False)
      (cv3): Conv2d(128, 128, kernel_size=(1, 1), stride=(1, 1), bias=False)
      (cv4): Conv(
        (conv): Conv2d(256, 256, kernel_size=(1, 1), stride=(1, 1), bias=False)
        (bn): BatchNorm2d(256, eps=0.001, momentum=0.03, affine=True, track_running_stats=True)
        (act): Hardswish()
      )
      (bn): BatchNorm2d(256, eps=0.001, momentum=0.03, affine=True, track_running_stats=True)
      (act): LeakyReLU(negative_slope=0.1, inplace=True)
      (m): Sequential(
        (0): Bottleneck(
          (cv1): Conv(
            (conv): Conv2d(128, 128, kernel_size=(1, 1), stride=(1, 1), bias=False)
            (bn): BatchNorm2d(128, eps=0.001, momentum=0.03, affine=True, track_running_stats=True)
            (act): Hardswish()
          )
          (cv2): Conv(
            (conv): Conv2d(128, 128, kernel_size=(3, 3), stride=(1, 1), padding=(1, 1), bias=False)
            (bn): BatchNorm2d(128, eps=0.001, momentum=0.03, affine=True, track_running_stats=True)
            (act): Hardswish()
          )
        )
      )
    )
    (14): Conv(
      (conv): Conv2d(256, 128, kernel_size=(1, 1), stride=(1, 1), bias=False)
      (bn): BatchNorm2d(128, eps=0.001, momentum=0.03, affine=True, track_running_stats=True)
      (act): Hardswish()
    )
    (15): Upsample(scale_factor=2.0, mode=nearest)
    (16): Concat()
    (17): BottleneckCSP(
      (cv1): Conv(
        (conv): Conv2d(256, 64, kernel_size=(1, 1), stride=(1, 1), bias=False)
        (bn): BatchNorm2d(64, eps=0.001, momentum=0.03, affine=True, track_running_stats=True)
        (act): Hardswish()
      )
      (cv2): Conv2d(256, 64, kernel_size=(1, 1), stride=(1, 1), bias=False)
      (cv3): Conv2d(64, 64, kernel_size=(1, 1), stride=(1, 1), bias=False)
      (cv4): Conv(
        (conv): Conv2d(128, 128, kernel_size=(1, 1), stride=(1, 1), bias=False)
        (bn): BatchNorm2d(128, eps=0.001, momentum=0.03, affine=True, track_running_stats=True)
        (act): Hardswish()
      )
      (bn): BatchNorm2d(128, eps=0.001, momentum=0.03, affine=True, track_running_stats=True)
      (act): LeakyReLU(negative_slope=0.1, inplace=True)
      (m): Sequential(
        (0): Bottleneck(
          (cv1): Conv(
            (conv): Conv2d(64, 64, kernel_size=(1, 1), stride=(1, 1), bias=False)
            (bn): BatchNorm2d(64, eps=0.001, momentum=0.03, affine=True, track_running_stats=True)
            (act): Hardswish()
          )
          (cv2): Conv(
            (conv): Conv2d(64, 64, kernel_size=(3, 3), stride=(1, 1), padding=(1, 1), bias=False)
            (bn): BatchNorm2d(64, eps=0.001, momentum=0.03, affine=True, track_running_stats=True)
            (act): Hardswish()
          )
        )
      )
    )
    (18): Conv(
      (conv): Conv2d(128, 128, kernel_size=(3, 3), stride=(2, 2), padding=(1, 1), bias=False)
      (bn): BatchNorm2d(128, eps=0.001, momentum=0.03, affine=True, track_running_stats=True)
      (act): Hardswish()
    )
    (19): Concat()
    (20): BottleneckCSP(
      (cv1): Conv(
        (conv): Conv2d(256, 128, kernel_size=(1, 1), stride=(1, 1), bias=False)
        (bn): BatchNorm2d(128, eps=0.001, momentum=0.03, affine=True, track_running_stats=True)
        (act): Hardswish()
      )
      (cv2): Conv2d(256, 128, kernel_size=(1, 1), stride=(1, 1), bias=False)
      (cv3): Conv2d(128, 128, kernel_size=(1, 1), stride=(1, 1), bias=False)
      (cv4): Conv(
        (conv): Conv2d(256, 256, kernel_size=(1, 1), stride=(1, 1), bias=False)
        (bn): BatchNorm2d(256, eps=0.001, momentum=0.03, affine=True, track_running_stats=True)
        (act): Hardswish()
      )
      (bn): BatchNorm2d(256, eps=0.001, momentum=0.03, affine=True, track_running_stats=True)
      (act): LeakyReLU(negative_slope=0.1, inplace=True)
      (m): Sequential(
        (0): Bottleneck(
          (cv1): Conv(
            (conv): Conv2d(128, 128, kernel_size=(1, 1), stride=(1, 1), bias=False)
            (bn): BatchNorm2d(128, eps=0.001, momentum=0.03, affine=True, track_running_stats=True)
            (act): Hardswish()
          )
          (cv2): Conv(
            (conv): Conv2d(128, 128, kernel_size=(3, 3), stride=(1, 1), padding=(1, 1), bias=False)
            (bn): BatchNorm2d(128, eps=0.001, momentum=0.03, affine=True, track_running_stats=True)
            (act): Hardswish()
          )
        )
      )
    )
    (21): Conv(
      (conv): Conv2d(256, 256, kernel_size=(3, 3), stride=(2, 2), padding=(1, 1), bias=False)
      (bn): BatchNorm2d(256, eps=0.001, momentum=0.03, affine=True, track_running_stats=True)
      (act): Hardswish()
    )
    (22): Concat()
    (23): BottleneckCSP(
      (cv1): Conv(
        (conv): Conv2d(512, 256, kernel_size=(1, 1), stride=(1, 1), bias=False)
        (bn): BatchNorm2d(256, eps=0.001, momentum=0.03, affine=True, track_running_stats=True)
        (act): Hardswish()
      )
      (cv2): Conv2d(512, 256, kernel_size=(1, 1), stride=(1, 1), bias=False)
      (cv3): Conv2d(256, 256, kernel_size=(1, 1), stride=(1, 1), bias=False)
      (cv4): Conv(
        (conv): Conv2d(512, 512, kernel_size=(1, 1), stride=(1, 1), bias=False)
        (bn): BatchNorm2d(512, eps=0.001, momentum=0.03, affine=True, track_running_stats=True)
        (act): Hardswish()
      )
      (bn): BatchNorm2d(512, eps=0.001, momentum=0.03, affine=True, track_running_stats=True)
      (act): LeakyReLU(negative_slope=0.1, inplace=True)
      (m): Sequential(
        (0): Bottleneck(
          (cv1): Conv(
            (conv): Conv2d(256, 256, kernel_size=(1, 1), stride=(1, 1), bias=False)
            (bn): BatchNorm2d(256, eps=0.001, momentum=0.03, affine=True, track_running_stats=True)
            (act): Hardswish()
          )
          (cv2): Conv(
            (conv): Conv2d(256, 256, kernel_size=(3, 3), stride=(1, 1), padding=(1, 1), bias=False)
            (bn): BatchNorm2d(256, eps=0.001, momentum=0.03, affine=True, track_running_stats=True)
            (act): Hardswish()
          )
        )
      )
    )
    (24): Detect(
      (m): ModuleList(
        (0): Conv2d(128, 18, kernel_size=(1, 1), stride=(1, 1))
        (1): Conv2d(256, 18, kernel_size=(1, 1), stride=(1, 1))
        (2): Conv2d(512, 18, kernel_size=(1, 1), stride=(1, 1))
      )
    )
  )
), 'optimizer': {'state': {0: {'momentum_buffer': tensor([… )}, 1: {'momentum_buffer': tensor([… )}, 2: {'momentum_buffer': tensor([… )}, 3: {'momentum_buffer': tensor([… )}, 4: {'momentum_buffer': tensor([ … )}, 5: {'momentum_buffer': tensor([ … )}, 6: {'momentum_buffer': tensor([… )}, 7: {'momentum_buffer': tensor([ … )}, 8: {'momentu
…
